…
ns for updating: Colocations handled automatically by placer. WARNING:tensorflow:From /Users/admin/anaconda3/lib/python3.7/site-packages/keras/backend/tensorflow_backend.py:3445: calling dropout (from tensorflow.python.ops.nn_ops) with keep_prob is deprecated and will be removed in a future version. Instructions for updating: Please use `rate` instead of `keep_prob`. Rate should be set to `rate = 1 - keep_prob`. _________________________________________________________________ Layer (type) Output Shape Param # ================================================================= conv2d_1 (Conv2D) (None, 32, 32, 32) 896 _________________________________________________________________ dropout_1 (Dropout) (None, 32, 32, 32) 0 _________________________________________________________________ conv2d_2 (Conv2D) (None, 32, 32, 32) 9248 _________________________________________________________________ max_pooling2d_1 (MaxPooling2 (None, 32, 16, 16) 0 _________________________________________________________________ flatten_1 (Flatten) (None, 8192) 0 _________________________________________________________________ dense_1 (Dense) (None, 512) 4194816 _________________________________________________________________ dropout_2 (Dropout) (None, 512) 0 _________________________________________________________________ dense_2 (Dense) (None, 10) 5130 ================================================================= Total params: 4,210,090 Trainable params: 4,210,090 Non-trainable params: 0 _________________________________________________________________ None WARNING:tensorflow:From /Users/admin/anaconda3/lib/python3.7/site-packages/tensorflow/python/ops/math_ops.py:3066: to_int32 (from tensorflow.python.ops.math_ops) is deprecated and will b
…
 # build the model model = baseline_model() model . summary() WARNING:tensorflow:From /Users/admin/anaconda3/lib/python3.7/site-packages/keras/backend/tensorflow_backend.py:3445: calling dropout (from tensorflow.python.ops.nn_ops) with keep_prob is deprecated and will be removed in a future version. Instructions for updating: Please use `rate` instead of `keep_prob`. Rate should be set to `rate = 1 - keep_prob`. _________________________________________________________________ Layer (type) Output Shape Param # ================================================================= conv2d_1 (Conv2D) (None, 32, 24, 24) 832 _________________________________________________________________ max_pooling2d_1 (MaxPooling2 (None, 32, 12, 12) 0 _________________________________________________________________ dropout_1 (Dropout) (None, 32, 12, 12) 0 _________________________________________________________________ flatten_1 (Flatten) (None, 4608) 0 _________________________________________________________________ dense_3 (Dense) (None, 128) 589952 _________________________________________________________________ dense_4 (Dense) (None, 10) 1290 ================================================================= Total params: 592,074 Trainable params: 592,074 Non-trainable params: 0 _________________________________________________________________ Fit Model # Fit the model model . fit(X_train, y_train, validation_data = (X_test, y_test), epochs = 4 , batch_size = 200 ) Train on 60000 samples, validate on 10000 samples Epoch 1/4 60000/60000
…
yers import LSTM,Dense # configure problem length = 50 output = 5 # define model model = Sequential() model . add(LSTM( 20 , return_sequences = True , input_shape = (length, 1 ))) model . add(LSTM( 20 , return_sequences = True )) model . add(LSTM( 20 , return_sequences = True )) model . add(LSTM( 20 )) model . add(Dense(output)) # compile model . compile(loss = 'mae' , optimizer = 'adam' ) print (model . summary()) _________________________________________________________________ Layer (type) Output Shape Param # ================================================================= lstm_13 (LSTM) (None, 50, 20) 1760 _________________________________________________________________ lstm_14 (LSTM) (None, 50, 20) 3280 _________________________________________________________________ lstm_15 (LSTM) (None, 50, 20) 3280 _________________________________________________________________ lstm_16 (LSTM) (None, 20) 3280 _________________________________________________________________ dense_4 (Dense) (None, 5) 105 ================================================================= Total params: 11,705 Trainable params: 11,705 Non-trainable params: 0 _________________________________________________________________ None Fit the model X, y = generate_examples(length, 500 , output) model . fit(X, y, batch_size = 10 , epochs = 5 , verbose = 2 ) Epoch 1/5 20s - loss: 0.0586 Epoch 2/5 20s - loss: 0.0413 Epoch 3/5 
…
